backend/artifacts/kstep_gru_state.pt (torch, 75509 bytes, 6 tensors)

gru.weight_ih_l0 f4 [192, 12]
00000000: 2ada b13c d38e 113e 68f9 6e3d b6f3 8abd
00000010: aa17 02bd e79c e7bd e742 383d ad7f e43d
00000020: 195b 373d 36eb bbbd 4565 603d 5088 ac3d
00000030: 3124 0c3e eab5 9c3b 55e9 f4bd b455 1c3e
00000040: c45e c0bc f687 b43b b0ce 8fbd c06d 72bd
00000050: 06fe 3a3d 2935 593d 4ea9 e1bd 0a45 783d
00000060: 91dd 7dbd 1fe9 2c3d 10db 9bbd 252b cebc
00000070: 74c4 8dbc e52e 893d 988f 0cbe 484b b43d
00000080: 71e7 1fbc 3f9b f53d f7e2 e43d 5464 acbd
00000090: 8765 423c 2e3b 193d aaad 9a3d f792 1abc
000000a0: 5e9d a23d d9a7 1e3e 44ed 02bd fe6f 413d
000000b0: b69f c03c 47a1 2b3d d0f6 c43d 48da 90bc
000000c0: 1fc8 c2bd 7e8d a9bd 8e2d a73d 2c0c c03d
000000d0: f063 d3bc f39a d63b 137b aabd 4fdc 8b3c
000000e0: 27d5 91bd 5902 94bd 631c 13ba b301 c0bd
000000f0: 4229 d13d 0aef 6bbd a29b 4dbd 35df 3bbd
00000100: a378 c53d 1ce3 df3d 63c5 32bd b5e6 fc3d
00000110: f6cb c53d d106 fbbd b998 313b 4c47 fbbd
00000120: 28fd 333e c6a4 fbbb fa31 2bbd 4bd5 3c3e
00000130: 3d79 a7bd 82b8 bfb9 95d4 a53d aa8b 793d
00000140: f378 ac3c a88a 0c3e b1cd c63d eb11 1abd
00000150: f1aa 673d 98b0 08be eb78 46bd 4a07 89bd
00000160: 6ab3 463d f3c8 9e3d d46c 99bb 8fd6 e63d
00000170: d3e0 c13d 4359 093e dedc 053e 473e 2d3e
00000180: 46a6 49bc 0cac e0bc 6812 dc3d 2b4e f83d
00000190: 7d47 333d d71d 503d 1304 203e 3598 98bc
000001a0: d755 83bb 3932 b0bd 336d 85bd c45c c1bc
000001b0: 7585 853d 841e e93c aa9e 833d 6ace f73d
000001c0: 8ef9 bb3c 0a27 823b d1d6 5b3d 92f6 bbbd
000001d0: 3e6c 91bd 88a8 cfbd 452f fa3a fa0b ac3c
000001e0: ab58 be3c 0975 d83d 0cb6 1d3c ac8d d1bd
000001f0: d134 bbbd 153b c6bd 72a9 923d f654 99bc
00000200: 0fe0 8f3d f47a 07bd 5907 43bd e307 843d
00000210: db20 9a3d 525d c9bd d17f a7bd 6c42 7d3d
00000220: 70a3 b03d 198f b5bc 9ca6 22bd e066 903d
00000230: bcae 8bbc 4f46 ecbd e7f5 efbd e26f 69bd
00000240: 6cb3 e03d d7d3 87bd 9c26 213d 4441 bebd
00000250: d099 653d fdd6 173d bab6 2f3d e5f7 06bd
00000260: 5d0f 833d 3c54 6c3c 9a58 89bc 8343 123d
00000270: a1d2 403d 1861 d23d 0f4b 1c3d 02ef 853d
00000280: f1ce ea3d 687a 0f3d 50da 62bd a7eb 83bc
00000290: 9314 4c3d 8f80 9fbd b58a dcbd 3c0f 53bc
000002a0: 96dd 06be 6b9f e23c f56b 3ebd 97d6 59bc
000002b0: 6b21 5bbc eef3 a2bc 4488 61bd 66cd 883d
000002c0: eee9 4c3c 384a 0e3d 6f90 acbd 7861 cdbd
000002d0: 566e 2d3d cc8e d23d 9c07 f13d 7372 ae3d
000002e0: f49e 89bd da1b b5bc e63b ab3d 3eda e7bc
000002f0: c8f6 2fbd 1dab 03be b99b ffbb f22b 4dbd
00000300: a749 3dbb 7bda ee3d 9075 01be f253 0b3e
00000310: ae6c 9abd 666d e13d 2afe a1bd c2c5 d3bd
00000320: abac 2ebc 6273 633d 627e 053e 6b15 64bd
00000330: 73d1 74bd e896 cc3d b913 673d bdbf 3ebc
00000340: 03ed b43d 1a79 f13c 9e6e a2bd fd97 c03d
00000350: 41e5 8b3d 9227 bd3c 341d 4c3d 23f4 e43d
00000360: e918 d5bd bb0d 21bc 2f9c 513d 8732 f1bc
00000370: 49bd b5bd d001 febd 7f2e 613d db3a ca3d
00000380: 0362 b53d 65e8 bf3c 6379 913d 6b46 ef3c
00000390: b374 dfbd 61f6 fbbd 6465 9abd 1ed3 e83c
000003a0: 9512 bebd b5ca c5bd 13af 43bd 3a96 b0bd
000003b0: 0aef 313c 9b55 653c f966 af3d 4731 ecbd
000003c0: 97f0 133e 3d8b 913e ab12 4e3e 614a 5c3d
000003d0: 6400 393e e087 00bc 1ce6 153c aabb 283e
000003e0: c883 babc 1bd3 ea3b e68d e93d b3de fd3d
000003f0: 9193 cbbd 5df9 d7bd a293 7ebd 958f 9c3d
0.021710474 0.1421464 0.05834332 -0.067847654 -0.03176085 -0.113092236 0.044985678 0.11157165
0.044764612 -0.09175722 0.05478408 0.08424437 0.13685681 0.004782428 -0.11958567 0.15267068
-0.023482688 0.005509372 -0.070218444 -0.059186697 0.045652412 0.053029213 -0.110186204 0.060612716
-0.06197888 0.04221451 -0.07610142 -0.025167057 -0.01730559 0.066983975 -0.13726652 0.08803421
-0.00975977 0.119925015 0.111761026 -0.084175736 0.011865026 0.037409954 0.07552655 -0.009434453
0.07940172 0.15493716 -0.031964555 0.047225945 0.023513656 0.041901853 0.09617388 -0.01768221
-0.09510826 -0.082789406 0.08162986 0.093773216 -0.02580449 0.006549233 -0.08324256 0.017072825
-0.07120734 -0.0722701 -0.0005611835 -0.09375324 0.102129474 -0.057601012 -0.05019725 -0.045867164
0.0964215 0.109319896 -0.043645274 0.123486914 0.09658043 -0.122571595 0.0027099086 -0.12269458
0.1757704 -0.0076795546 -0.04179571 0.1844074 -0.08177421 -0.00036567828 0.080971874 0.06092421
0.021053767 0.13724768 0.09707201 -0.037614744 0.056559507 -0.13348615 -0.04845516 -0.066908434
0.048510946 0.07753172 -0.004682163 0.112713926 0.0946671 0.13412957 0.13072535 0.16918288
-0.012307709 -0.027425788 0.10745698 0.12124284 0.04376935 0.050809707 0.15626554 -0.018627265
-0.0040080356 -0.08603329 -0.06514969 -0.023603804 0.065195955 0.028456934 0.06426747 0.12099917
0.022946145 0.003971939 0.05367166 -0.09177889 -0.07100724 -0.10139567 0.0019087574 0.021001805
0.02323564 0.10569198 0.009625923 -0.102321 -0.09140933 -0.09679238 0.071612254 -0.01871727
0.07025158 -0.03307624 -0.04761443 0.06446817 0.07525798 -0.098322526 -0.08178676 0.061830923
0.08624923 -0.02216296 -0.039709672 0.07050872 -0.017051093 -0.11536848 -0.11716824 -0.056991465
0.10971722 -0.06632202 0.03934346 -0.09289792 0.05605489 0.037070263 0.04289887 -0.032951254
0.06399415 0.01442438 -0.016765881 0.035708915 0.04707587 0.102724254 0.03815752 0.06539728
0.11465252 0.035028845 -0.05538398 -0.016103579 0.04982431 -0.077881925 -0.10768644 -0.01288205
-0.13170466 0.027663907 -0.046489675 -0.013295791 -0.013374667 -0.019891705 -0.055061594 0.06679802
0.012506945 0.03473875 -0.08425986 -0.10028356 0.042341553 0.102811426 0.117690295 0.08517923
-0.06719771 -0.022108007 0.08361034 -0.028302308 -0.04295996 -0.12858243 -0.007800546 -0.050090738
-0.0028883012 0.116627656 -0.12642503 0.13606241 -0.0754026 0.11007194 -0.07909806 -0.10340454
-0.010661284 0.05552996 0.13036492 -0.05568449 -0.05977006 0.099897206 0.056415293 -0.011642394
0.08834269 0.029476691 -0.07931255 0.094039895 0.06830836 0.023090158 0.049832538 0.11179378
-0.10405142 -0.009829934 0.05117434 -0.029443039 -0.08873994 -0.124026895 0.054975983 0.09874507
0.08856585 0.023426244 0.07103231 0.029208383 -0.109109305 -0.123028524 -0.0753887 0.028420981
-0.09280888 -0.09657804 -0.047774386 -0.086224034 0.010860214 0.013997461 0.08564562 -0.115328364
0.14447246 0.28426543 0.20124309 0.05378187 0.18066555 -0.007844895 0.009149101 0.16477838
-0.022767916 0.007166279 0.11404018 0.12395992 -0.099402554 -0.10545609 -0.062152512 0.076445736

gru.weight_hh_l0 f4 [192, 64]
00000000: 3a1d b03d 99b1 383e 9ede 9ebd 3da1 07be
00000010: a994 e43d a6f6 673e cc3c 95be 2720 733e
00000020: 0c55 693e f8f4 e9bd ecc5 81be a4a1 853d
00000030: 29ec 883e 0531 33be 74fd 86bd 155f f4bd
00000040: 3869 543e 6b7a 9bbd a58a 40bd eaf9 63be
00000050: 803c 83be a264 2cbe 8064 923e 2a17 4abe
00000060: 7ba9 f4bd 18f9 a0be c68a 9fbc ee77 153d
00000070: 1cbb 88be cad5 313e a01f c73d 0724 f5bd
00000080: 2155 3ebd 8f0b 0dbe 87a0 1d3e fccd 19be
00000090: fa1f 06be 0053 93bd 4f63 443e a5c5 48be
000000a0: 84b1 f83d 2300 323e fa8c 533d 7b9e 823e
000000b0: 86dd f0bc c1b3 963d a537 633c 5c5a 223e
000000c0: fff0 d03c 297e 023e 4b11 9a3e 575d 93be
000000d0: 2c0d 243d cdd5 1fbc 0726 69be 1e36 183d
000000e0: 0fa8 a23e 4dbe 7e3e 86a6 533d b58b 76be
000000f0: abb1 9d3c 7bbf 743e b115 17be 5eed 543e
00000100: e24b 5c3d d3d0 173c bdde 40bd 89c5 abbd
00000110: 981c e63d ff3d 4a3e 597d 25bd 990d c23a
00000120: 0432 6c3e 7b40 bbbd 17b5 4c3b 5a4c 103e
00000130: cf8f 5b3e 69ea 36be 3ba5 7e3d b625 c4bd
00000140: da44 133e 3c6a 2abe 1978 71be c917 b1be
00000150: 6b59 f8bc e7bb b5bd 15d0 49bc 4fe5 e4bc
00000160: 84d5 453e 96d9 54be 4292 133e 1c29 26be
00000170: fd3f 68bc 9c86 0e3e 9861 533e b87d b8bd
00000180: 6438 a23d 59fb 00be af80 d8bc 98fd afbd
00000190: 0dc9 363d 4d35 e3bd 6d6c 8b3e c01c 13bd
000001a0: 40bb b03c e3a0 483e 1680 12be 7279 3f3e
000001b0: 1e3b 37bd 6ca1 563e 8c25 2c3d 73fa bb3d
000001c0: 81cd 913d aa94 703c 1562 303c f29d e5bd
000001d0: 8cec ee3d 7c5e 18be efba 84bd 0cd8 9ebd
000001e0: 88eb 883e af70 a23d a492 183e c4c9 6fbd
000001f0: 037f 2cbe 9a86 ff3d aed3 20be 8353 e23d
00000200: fab9 e2bc af2e d4bd a3dc 2d3d 24a0 b8bd
00000210: 9329 12be db18 9a3d 6fb3 113e 4bdc 0bbd
00000220: 2b87 a03d d6ed 42bd f685 17be 6185 82bd
00000230: bb28 393d 4deb 8fbb d5e4 89bc 3f57 1c3e
00000240: 09fd b6bd 536b edbd 70ca 3abd eca8 70bd
00000250: a4cd 2bbd b54b e2bd 2107 533d 6456 4a3d
00000260: 7b9e 103e 910e 033d eaa8 26bd 4156 af3d
00000270: 9128 07be aa13 2d3d 390e 103e a99e bb3c
00000280: 9474 ac3d b358 283e 979e 1a3d 75ff 873d
00000290: aee6 d33c f0b3 8fbd d4f7 e43c 1d20 37bc
000002a0: 6f93 ebbd 61b8 5bbd 5527 5cbc cc84 05bd
000002b0: 7955 013e daa7 cb3d 3b27 1a3e 2e83 b1bc
000002c0: 2699 cc3d b16a ba3c 1a77 c53d 42dd f63c
000002d0: 7903 d83d 04cf d6bc 7458 01be f5a2 bcbd
000002e0: 5d43 a3bc d0e9 033e 8da7 12bd 2d30 f13d
000002f0: 703e 1abe da64 063e 4618 1c3d 26e2 af3d
00000300: f8c1 143e 4fb7 883d e681 a7be 8939 22be
00000310: 1908 fcbb 0c43 af3d c717 6abe 39d8 cbbc
00000320: 9ef4 393e 3c02 73bd 14b2 05be f033 253e
00000330: 6895 f03d b82b adbe 73ea 45be f47f bbbc
00000340: 462c c43e 225a e5be 5299 c4be 2425 03bf
00000350: 4a20 cdbd dd88 94be dde6 1d3e 7753 1dbe
00000360: 5cce 1b3e e9b8 2bbe 8cfc f43c a33c 9fb9
00000370: 4381 79bd 1899 813e ea31 a23e 1fd2 51be
00000380: e634 953d f55e 23be b207 d23d 56ce 9bbe
00000390: 72c4 8cbd bb8c 9ebd 66ea dc3e cb54 44be
000003a0: eea6 123d 4eba 3d3e ad55 70bd f694 243e
000003b0: e103 e7bd 90ea e93d 5a1f 293e bdeb 583e
000003c0: 2630 663e 20b5 503e 0b58 a43c a897 92be
000003d0: 3417 0f3b 5885 6d3c d699 6bbe 20af 28be
000003e0: 22c9 e63e f270 a03e bc8e 25bc 5b91 89be
000003f0: cadf 3fbe cf94 633e 7549 debe eb70 093d
0.085993245 0.18036498 -0.077573046 -0.13245101 0.11161167 0.22652683 -0.29147947 0.23742734
0.22786349 -0.11423677 -0.25346315 0.06524971 0.26742676 -0.17499168 -0.06591311 -0.11932198
0.20743263 -0.07591709 -0.04700722 -0.22263303 -0.25632095 -0.16835263 0.285923 -0.19735399
-0.11946388 -0.31440043 -0.019475352 0.036491327 -0.26705253 0.1736671 0.09722829 -0.11969762
-0.046467904 -0.1377394 0.15393268 -0.15019983 -0.13098136 -0.07193565 0.19178508 -0.19606645
0.121432334 0.17382865 0.051648118 0.25511536 -0.029402506 0.07358504 0.013868247 0.15854782
0.02550554 0.12743439 0.30091318 -0.2878215 0.040051624 -0.009755564 -0.22768413 0.037160985
0.31768844 0.24877281 0.05167248 -0.24076732 0.019249758 0.23901169 -0.14754368 0.20793673
0.053783305 0.009266096 -0.04708742 -0.08387286 0.112359226 0.19750212 -0.040402744 0.0014805078
0.23065954 -0.09143158 0.0031235868 0.14091626 0.21441577 -0.17862858 0.062169295 -0.09577505
0.14381734 -0.16642088 -0.2358097 -0.3458846 -0.030316075 -0.0887373 -0.012317677 -0.027941374
0.19319731 -0.20786127 0.14411262 -0.1622662 -0.014175412 0.13918537 0.20642698 -0.09008354
0.07920912 -0.12595882 -0.026428549 -0.08593291 0.04462533 -0.11094151 0.2723116 -0.03591609
0.021573663 0.19592623 -0.14306673 0.18698671 -0.044734113 0.20960015 0.042027995 0.09178629
0.07119275 0.014683882 0.010765572 -0.11211766 0.116662115 -0.14879793 -0.06480967 -0.077560514
0.26742196 0.07931649 0.14899689 -0.058542028 -0.16845326 0.12476845 -0.1570575 0.11051085
-0.027676571 -0.10360467 0.042446744 -0.090149194 -0.14273672 0.07524272 0.14228605 -0.034145635
0.07838281 -0.0475901 -0.14797196 -0.06373096 0.04520486 -0.0043920637 -0.016832748 0.15267657
-0.089349814 -0.11592736 -0.045603216 -0.058754846 -0.04194416 -0.11049596 0.05152047 0.049398795
0.14122956 0.031996313 -0.040688433 0.085613735 -0.13199069 0.04225508 0.14067926 0.022902803
0.08420673 0.16440086 0.0377489 0.066405214 0.025866833 -0.07016742 0.027950205 -0.01117709
-0.1150273 -0.053642634 -0.013437112 -0.032597348 0.12630261 0.099441245 0.15054028 -0.021668997
0.09990148 0.022755953 0.096418574 0.0301348 0.10547537 -0.02622176 -0.12631398 -0.09210769
-0.019929582 0.12882161 -0.03580432 0.11776767 -0.1506288 0.1312441 0.038109086 0.08588056
0.14527118 0.06675588 -0.32716292 -0.1584226 -0.007691395 0.0855771 -0.22860633 -0.024883376
0.1815972 -0.059328303 -0.13056213 0.16133094 0.11747247 -0.33822417 -0.19327717 -0.022888161
0.38315028 -0.44795328 -0.38398224 -0.5122855 -0.10015924 -0.29010668 0.15420099 -0.1536387
0.15215439 -0.16769756 0.02990558 -0.0003037202 -0.06091429 0.25312114 0.31678706 -0.20490311
0.0728548 -0.15954192 0.10255374 -0.3043086 -0.068734065 -0.07741686 0.43147582 -0.19172971
0.035803728 0.18528101 -0.058675457 0.16072449 -0.11280037 0.11421692 0.16515866 0.21183677
0.22479305 0.20381594 0.020061513 -0.2863133 0.0021833898 0.014497124 -0.23007903 -0.16473055
0.45075327 0.3133617 -0.010104831 -0.2686871 -0.18737713 0.22224735 -0.43415418 0.033554953

gru.bias_ih_l0 f4 [192]
00000000: 3d31 7b3e 58d8 8f3d 01b8 183d aebe fb3e
00000010: 51c5 6fbe a7e3 f63d 5ba4 c33d 8fa4 dfbd
00000020: fcf4 1e3e 48c2 d43d 7abb 3abd 660b 96bd
00000030: 127a 84bc 46a1 cf3d 895d c03d e554 0dbe
00000040: 6fa1 ee3d d1aa d63d e90c 753e 4288 4c3e
00000050: af11 e83e d67c dcbd 9193 ad3d f4a8 0bbb
00000060: d573 31bc 78ef 823e 9730 323e c4c6 2d3e
00000070: fc8b 443e c9f7 093e c208 b3bd b683 aa3d
00000080: 4f68 b63d d51c 083e 1962 32bd 94ab 923e
00000090: 1b25 a73d 32bc 98be 0edc 773e de68 ba3e
000000a0: 2c80 1e3e c92a 4c3d e385 f73b ab6d 8b3e
000000b0: c87f 5e3d f071 a6bc 3ee7 dcbc 9b86 663e
000000c0: 1dcb 55be 1145 19be 6167 19bb ff60 9c3d
000000d0: 8b0e 5b3e aa0c 313e 1dee 99bc f5dc c1be
000000e0: 83e7 9c3e eea3 e53d 47db d63d d59c bdbd
000000f0: 61a4 c1bd fc37 b8bd 9b5f 3e3d c219 5fbe
00000100: 2444 743d 770c 03be 05bb e93c fb10 95be
00000110: 7377 4aba 5928 36be ce42 24bc 785d cf3d
00000120: 1152 d63d 8198 22be 0aba 31bd 8e48 f4bd
00000130: 74bb 0b3e f0a3 7abe 63c8 99bc 3cbe a53e
00000140: 0849 ba3c 1c41 90be 0900 02be 98dc d4be
00000150: 211a a3bd 401c ca3d 58fb a1bd dbe9 173e
00000160: 646c 81be 2369 0dbe 6967 a7bd c3d3 04be
00000170: 3968 8dbd 5615 11be 97b3 993c 2771 2ebe
00000180: efd2 413c 6b4f 0bbe a090 dcbd 7b2c 91be
00000190: 100e 10be 911e 173e 634c 14bf def0 6cbe
000001a0: 1e2c c7be ee2a 533c dfb9 53bc 7f02 60be
000001b0: 800e 3abd b573 22bd 2633 debd 6d16 b6bb
000001c0: 0de9 5cbd c909 853d eae3 c63d bd49 dfbc
000001d0: e20b 9fbe dd9c 95bc 6909 543d 2eb1 d3bd
000001e0: 4365 9dbe 2a2d 3b3c 58c0 b0bd 0b57 16bd
000001f0: afd8 0abe 20da ffbd 4436 aabe ea1b 3b3e
00000200: 5e78 253d 3131 433d bf1f 87be 1a34 c7be
00000210: cad4 9b3d 6f7d 173e aaed 54be 5408 e13c
00000220: 6b42 a33e 509f febb 8072 fcbd 4640 0f3e
00000230: 1f1d 513e 95a6 64bd 766f 923d 4be3 0c3b
00000240: 4608 a13e 623e 59be 2423 3abe 9553 c2be
00000250: 4a5c 7dbe 1388 39be 6dc9 f63b 556e 88bd
00000260: dc06 793d 0e53 92be a8aa df3c 4618 5d3d
00000270: 23b6 c9bb e79f 8d3e 174c 3d3e d6ef 97be
00000280: 2663 bd3d 44f1 4cbd 28fe 8d3d 4875 b3be
00000290: d75c 573b f467 2fbb 6fa9 f83e 1461 e8be
000002a0: e40a 103e 194a 723e 7e99 903d d8e6 a93e
000002b0: 606c 983d 864f ed3d 120f 013e e06a 263e
000002c0: 77be 553d 726e 003e 64d3 0c3e 8d66 eabd
000002d0: 6c6f a83c 01eb 26bc dc50 eabd 32c4 763d
000002e0: 667d 0e3f 990e 563e e9d6 eb3d e6bb 96be
000002f0: 31a2 543d 7c1a f8bc 6d8f 8ebe 36a3 b63c
0.24530502 0.07023686 0.037284855 0.49168915 -0.23415114 0.1205514 0.09552833 -0.10920059
0.15523142 0.10388619 -0.045588948 -0.07326393 -0.016171489 0.10138182 0.093928404 -0.13801916
0.11651885 0.104817994 0.23930706 0.19973853 0.45325992 -0.10765998 0.08475412 -0.002131042
-0.010830839 0.25573325 0.17401348 0.16970354 0.19194025 0.13473429 -0.08741905 0.08325903
0.08906614 0.13292249 -0.043550584 0.2864653 0.08161374 -0.29831082 0.24205038 0.36408132
0.15478581 0.04984549 0.0075538023 0.27232108 0.05432108 -0.020318002 -0.026965734 0.22512285
-0.20878263 -0.14967753 -0.0023407566 0.07635688 0.21392266 0.17289987 -0.0187903 -0.3786389
0.3064538 0.11212908 0.104910426 -0.09258429 -0.09455181 -0.08995053 0.046477895 -0.2178717
0.059635296 -0.12797724 0.02853156 -0.29114518 -0.0007723488 -0.17788829 -0.010025693 0.101252496
0.10464872 -0.15878488 -0.04339031 -0.11927901 0.13645726 -0.244766 -0.01877231 0.323717
0.022739902 -0.28174675 -0.12695326 -0.4157455 -0.07963968 0.098686695 -0.07909268 0.14835303
-0.25278008 -0.13809638 -0.08174021 -0.12971406 -0.069046445 -0.14168295 0.018762393 -0.17035352
0.011830076 -0.13604514 -0.107697725 -0.28354248 -0.14067864 0.14757754 -0.57929057 -0.23138759
-0.38900846 0.012888653 -0.012922733 -0.21875952 -0.045423985 -0.039661128 -0.108495995 -0.0055568726
-0.053933192 0.06496007 0.0971144 -0.02725684 -0.31063753 -0.018263275 0.051766787 -0.10336529
-0.3074132 0.011424342 -0.08630437 -0.036704104 -0.1355922 -0.12492776 -0.33244526 0.18272367
0.040397994 0.047654334 -0.26391408 -0.38906938 0.07608946 0.14793943 -0.20793787 0.027469791
0.3188661 -0.0077704564 -0.12326527 0.13989362 0.20421265 -0.055822928 0.07150166 0.0021497782
0.31451625 -0.21215203 -0.18177468 -0.37954393 -0.24742237 -0.18118314 0.007531336 -0.06661669
0.060797557 -0.2857899 0.027303055 0.053978227 -0.0061557456 0.27661058 0.18486057 -0.29675168
0.09247427 -0.050034776 0.06933242 -0.35050416 0.0032861733 -0.0026764842 0.48566768 -0.45386565
0.14066654 0.23661079 0.07060526 0.33183932 0.07442546 0.115874335 0.12603405 0.16251707
0.052183595 0.12542132 0.13752514 -0.11445341 0.020560943 -0.010187865 -0.11441204 0.0602457
0.5566009 0.20904006 0.115156 -0.2944023 0.05191249 -0.030286066 -0.278438 0.022294622

gru.bias_hh_l0 f4 [192]
00000000: b67a e33d 4008 613e 8ef0 8f3c e53f fa3e
00000010: 015b 25be 4567 ad3c ee4f 043e f8c0 f5bd
00000020: 208c 9b3e 3e5f 763e f28f 443e bf30 0abd
00000030: 6067 f4bd 4c49 c53d 5cb4 c83d ca9b 42be
00000040: c65e d7bb 571a 623e 6174 173e 8293 e93d
00000050: 0883 dc3e cf0e d0bd a577 39bd 086b 92bd
00000060: c9d0 08bc 4325 2c3e c98e 463e 8444 1c3e
00000070: 2c88 423e 46ed 443e da4a 1c3e 192c c43d
00000080: b72c 08bd f86c 813e 472c 9f3d d9af 553e
00000090: ae87 d23d a488 a0be f513 3d3e 9462 913e
000000a0: 375d 543e 9eb5 473e ec38 0f3d 5193 a53e
000000b0: 3b7b 9d3d ac31 76bc a72c f63d 361e 873e
000000c0: 3a80 18be bbe1 79be 0551 5e3d e688 e039
000000d0: a94a 813e 39dd cf3c 41af e43d 5478 91be
000000e0: a3df c63e 99d1 6c3d 74af 1e3e 6783 213d
000000f0: a2c6 30bd f8cb 843c 28ba 163d 4f00 06be
00000100: 2864 3c3d d5a2 51be 3db2 88bd 9999 aabe
00000110: 9a3e e9bc 790a 623c e777 283d f809 5d3e
00000120: cf95 03bd d00a d7bd b3d4 04be e926 7bbe
00000130: 6d42 543d 9d9b 82be 4dea 153e 0f6b dc3d
00000140: 9168 1bbc 4ae5 d1be 54fc dcbd a61c ddbe
00000150: 1a04 5fbe 1c59 87bd ac0b fdbd f450 393e
00000160: 5a5f 49be 2db7 80be 5682 d4bd c160 babd
00000170: 30ce 853d 6671 2cbe 20aa e3bd b0ff a73a
00000180: 59b2 073d 8c44 f2bc 9fef 06bd 1cde 83be
00000190: 8986 43be a977 b438 b119 44bf 0f2c 1cbe
000001a0: 78c8 78be 18cc 763c 77a3 9ebd 631e b1be
000001b0: e177 13be 817a 22bd f845 31be a773 4cbd
000001c0: 7d12 1dbe 1f56 a23d d2b6 3e3d 4fe8 94ba
000001d0: fdfa 52be 6f65 913d cc0a ffbd 3a38 b2bb
000001e0: 393f 2cbe ec11 163e babd c5bd 4d89 bdbd
000001f0: 4e4b bfbd eaa9 53bc 3ff1 03bf 5375 923e
00000200: a538 413e c0cb ef3c b27f 82be 72e8 b4be
00000210: 9b6a 04be 04c0 5b3d 440c 29be cc29 8f3d
00000220: 3ccb c43e a5bd 41be b167 8f3d 2021 9c3e
00000230: 3e20 313e 5f74 17be 0abe c93c 55b4 993d
00000240: e31d 3a3e 2668 e6be 0dc0 f4be f130 fbbe
00000250: 44f9 fdbe 55b3 a33c ad17 0c3e 9ee6 8cbd
00000260: 0749 f03c a2f7 54be b4bf 773e 9da0 8cbd
00000270: c0a0 9fbc dc16 243e 4fd6 403d bf00 4cbe
00000280: 82a5 f63d 2dbc e7bd 911e 013e 8d72 0abe
00000290: ee07 dfbd 02eb 73bd 8c51 0a3f c424 d6be
000002a0: ea4b 753e 7ce7 9d3e 8ad8 4dbe db9c ad3e
000002b0: 4bab e8be 0989 083e 86b3 87be 5881 513e
000002c0: fd6a a6bd 2330 c33d de87 ac3d caae 3ebc
000002d0: 6160 723e ec1f cdbd 2591 3abe 1d5d f8bc
000002e0: 19ea 153f 0c3a 3c3e d10a 6d3d 72de 6cbe
000002f0: e000 28be b2fd 4c3e bccb eabe 0290 3fbd
0.1110739 0.21975803 0.01757076 0.48876873 -0.16147996 0.021167407 0.12921116 -0.119996965
0.30380344 0.2405977 0.19195536 -0.033737894 -0.1193378 0.09633121 0.09800026 -0.19004741
-0.006572577 0.2208036 0.14790489 0.11405088 0.4306872 -0.101590745 -0.045280118 -0.07149321
-0.0083505595 0.16811089 0.19390406 0.15260512 0.18997258 0.19231138 0.15262929 0.095787235
-0.03324577 0.2527845 0.07772117 0.20867862 0.10279785 -0.3135425 0.18464644 0.28395522
0.20738684 0.19502875 0.034966394 0.32338956 0.0768952 -0.015026491 0.120202355 0.26390237
-0.14892665 -0.24402516 0.054276485 0.00042826607 0.25252274 0.025374042 0.111662395 -0.28412116
0.38842496 0.057817075 0.15496618 0.039431956 -0.04315818 0.016210541 0.036798626 -0.13086055
0.045993954 -0.20472272 -0.06674621 -0.3332031 -0.028472234 0.013796442 0.041129973 0.21585834
-0.03212529 -0.10500109 -0.12971763 -0.24526562 0.05182116 -0.2550935 0.1464016 0.10762607
-0.00948538 -0.40995246 -0.10790315 -0.4318592 -0.21778908 -0.06608793 -0.12355742 0.18097287
-0.1966528 -0.25139752 -0.10376422 -0.091004856 0.06533468 -0.16840133 -0.11116433 0.001281729
0.03312907 -0.029573701 -0.032943364 -0.25755394 -0.1909429 8.605357e-05 -0.766017 -0.15251182
-0.24295223 0.015063308 -0.07746022 -0.34593496 -0.14401199 -0.03966761 -0.17311847 -0.049914982
-0.15339084 0.079265825 0.04656107 -0.0011360737 -0.20603557 0.07099425 -0.12453231 -0.0054388316
-0.16820993 0.14655274 -0.09655328 -0.09254704 -0.09340535 -0.012918929 -0.5153999 0.28605136
0.18869264 0.02927196 -0.2548805 -0.35333592 -0.12931292 0.053649917 -0.16508585 0.06990394
0.38436306 -0.1892 0.070021994 0.30494022 0.17297456 -0.14790486 0.02462675 0.07505099
0.18175463 -0.45001334 -0.47802773 -0.49060777 -0.49604237 0.019982973 0.13680907 -0.06879924
0.029331697 -0.2079759 0.24194223 -0.06866572 -0.019485831 0.16024345 0.04707938 -0.1992216
0.12043287 -0.113151886 0.12609316 -0.1352026 -0.10890184 -0.059550293 0.5403068 -0.41824925
0.2395474 0.3084067 -0.20102134 0.33908734 -0.45443186 0.13333525 -0.26504153 0.20459497
-0.08125875 0.09530666 0.08424352 -0.011638353 0.23669578 -0.10015854 -0.1821943 -0.030317837
0.5856033 0.18381518 0.057871643 -0.23131731 -0.16406584 0.20018652 -0.45858562 -0.046768196

head.weight f4 [48, 64]
00000000: 1988 48bc f336 49bc 0cbd 1ebd b860 753c
00000010: 3efe cc3d 36a8 c4bc 2c21 37bc 3132 a9bd
00000020: bd30 eb3c 2817 543c 7d86 23ba 2690 4f3c
00000030: 822e 823d e276 3d3c 9aaf 503d 230e e6bd
00000040: 7cd7 973b 564d 8b3d f02e 013d ff1f b6b9
00000050: 6385 bb3b 5205 f6bc a51a b3bb ef6e 87bd
00000060: 74ae 01be 7090 6f3c 449b 78bd e605 3f3c
00000070: a7bd 843c 5885 13bd 7d4c f43c 2dd6 9f3d
00000080: c12c 173c 92cb 373d 57fb 04bd ebfa d93c
00000090: b524 ec3c 6417 89be 8603 c03a dcc9 fa3c
000000a0: 7ecb b7bc 1a2b b7bc f68c 1cbd 0576 74bc
000000b0: cc7c 0dbd 10c2 16be 194e 19bd 2fe8 2ebd
000000c0: 0093 9dbb f302 6c3e 440e 67bd 55fd 753c
000000d0: e595 03bd 90d6 88bc 7e1c 4a3a 6709 92bd
000000e0: 6b5d e73c 2dc1 043d b15b 70bc bfd8 0bbd
000000f0: 8827 29bd d170 13bd 575c 843d 84c3 7d3f
00000100: d754 3fbc 2b50 57bc 67a6 28bd 9e59 6b3c
00000110: 76ed d23d 2f84 b9bc a97c 66bc 38dc b0bd
00000120: 5407 e03c 6de8 7c3c 5b3b a73a a4fd 533c
00000130: 6df5 8c3d c315 3e3c 8f9f 543d df3c e3bd
00000140: 6aac 443b ecd3 983d 5dc5 fe3c 6f1e 8e39
00000150: 57bd 8d3b f243 fbbc b0ea 53bb 346c 5abd
00000160: 1cba 01be 6269 5d3c 689b 70bd 3176 3a3c
00000170: 61ab 713c 37f8 17bd 313e f83c 7f16 a33d
00000180: ba5f a73b 67fe 373d 5468 0ebd 071e d93c
00000190: f5ac e93c 13d4 8abe 1e7c a53a cb51 e23c
000001a0: fd68 bcbc 170c a9bc 00e7 1bbd 6b2f 72bc
000001b0: 1398 0bbd 0904 15be 31bc 0fbd 48f4 2dbd
000001c0: fcf4 80bc a896 5b3e 2cf5 4dbd 5110 803c
000001d0: 187d 00bd f9a9 84bc fbdb df3a 26b2 9bbd
000001e0: 8073 de3c df16 003d ffa0 84bc 14b0 08bd
000001f0: 56ae 2abd 06e2 21bd 3320 753d 2d19 813f
00000200: 0e06 5fbc 005b 76bc 1a54 2cbd 7202 5f3c
00000210: 4a0b d93d b412 b2bc 5e0b 8bbc 37e9 b8bd
00000220: 923c 003d ca25 8f3c 3f13 953b 9749 7b3c
00000230: 9bb5 8c3d 84fb 783c 5d30 523d e6ba e7bd
00000240: 5793 773b 68e4 a03d 0784 db3c d740 80b9
00000250: b096 923b d15a 11bd 0fdc 06bc 1ddf 52bd
00000260: 7dd9 04be 8abd 6d3c 1453 5ebd 9598 813c
00000270: 264e 9a3c 44e8 1bbd 6b17 0c3d 0107 a43d
00000280: df04 1d3c 99f0 343d 39b5 09bd f570 c93c
00000290: 2801 e43c 409f 8bbe 35af 963b f424 e13c
000002a0: 5cd9 b9bc 2b09 99bc 6283 11bd 09c7 87bc
000002b0: e666 17bd fbce 15be 12d4 0fbd cfcf 18bd
000002c0: 0f72 cbbc a85f 513e 5289 39bd cf02 8e3c
000002d0: f813 f8bc e00c a5bc 927a ae3b 5724 a1bd
000002e0: 3a51 e03c ecec 053d 7795 90bc 15a0 06bd
000002f0: 129e 2bbd 07db 33bd de81 513d 52da 823f
00000300: fd8d 11bc bb6b 43bc 7f33 2bbd 092f 7b3c
00000310: d2bd de3d 650f 94bc 6b43 33bc 65f1 bfbd
00000320: 8e20 f83c edc0 5c3c 34c4 863a 49e3 703c
00000330: 8cf0 863d cfca 103c ab2d 593d 8357 e2bd
00000340: 5962 083b ab42 a63d efde e23c 3255 baba
00000350: ee01 b43b b80e f6bc 11b2 42bb 8d5f 26bd
00000360: 76c5 06be e8f2 393c ce63 58bd 6d0f 2e3c
00000370: e8e1 583c 7132 29bd 4090 033d d5fb a53d
00000380: 5ba8 b53b 3df4 263d 2d39 07bd e097 c83c
00000390: 187a cf3c c55a 87be 00c7 383b 0659 da3c
000003a0: c226 cebc d5a2 97bc ebeb 17bd 3bf0 60bc
000003b0: 92dd 08bd f911 17be 9d90 04bd f8a5 1dbd
000003c0: 4b2c 1fbd dcad 513e 7405 25bd dc7e 403c
000003d0: 66cb 04bd e3a0 85bc 1ea3 a239 974e a9bd
000003e0: 1a9a d13c 5cc1 f13c 8acd 8ebc 5d00 0cbd
000003f0: 0aba 2bbd 04dd 38bd 36c7 5a3d e9b2 873f
-0.012239479 -0.012281167 -0.038754508 0.014976673 0.1000943 -0.02400599 -0.011177342 -0.082615264
0.028709764 0.012944974 -0.0006237997 0.012668645 0.06356527 0.011563988 0.050948717 -0.11233165
0.004633842 0.0680186 0.031538904 -0.00034737584 0.005722688 -0.030031834 -0.0054658228 -0.06612956
-0.12664205 0.014621839 -0.060694948 0.011659121 0.016203715 -0.03601584 0.029821629 0.07804523
0.009226979 0.044871874 -0.03246626 0.026608905 0.028826097 -0.26775658 0.0014649488 0.030613832
-0.0224359 -0.02235942 -0.03822037 -0.014920716 -0.034542844 -0.14722466 -0.037427995 -0.042701896
-0.0048087835 0.23048 -0.05641009 0.015014012 -0.032125372 -0.016703874 0.0007709934 -0.071306996
0.028242787 0.03241079 -0.014670298 -0.034142252 -0.041297466 -0.035996262 0.06462925 0.9912646
-0.011677942 -0.013141672 -0.04117432 0.014364628 0.10299198 -0.022646038 -0.014067807 -0.086357534
0.027347244 0.015436274 0.0012758778 0.012938891 0.06882749 0.011601868 0.05190998 -0.110955946
0.0030009993 0.07462296 0.03109997 0.00027107025 0.0043255496 -0.030672047 -0.003233593 -0.053325847
-0.12668651 0.013513895 -0.058741957 0.011380718 0.014750333 -0.03710195 0.030303093 0.07963275
0.005107847 0.04492035 -0.034767464 0.026503576 0.028524855 -0.27114925 0.0012625491 0.027626893
-0.022999281 -0.020635648 -0.038062096 -0.014781813 -0.034080576 -0.1455232 -0.035091583 -0.042469293
-0.015741818 0.2144419 -0.050282642 0.01563278 -0.0313693 -0.01619433 0.0017079109 -0.076023385
0.027154684 0.03127181 -0.01619005 -0.033371046 -0.041670166 -0.039522193 0.05984516 1.0085808
-0.013612283 -0.0150363445 -0.042072393 0.013611423 0.10597856 -0.021737434 -0.016973194 -0.09028857
0.031307764 0.017474074 0.0045494135 0.015337369 0.06870576 0.015196685 0.051315654 -0.11314945
0.003777703 0.07856065 0.026796354 -0.00024462372 0.0044735298 -0.035487 -0.008231177 -0.05148231
-0.1297359 0.014510522 -0.05427845 0.015819827 0.018836092 -0.038063303 0.03420202 0.080091484
0.009583681 0.044174764 -0.033620093 0.024589995 0.027832583 -0.27269936 0.004598523 0.027483441
-0.022686653 -0.01868113 -0.035525687 -0.0165744 -0.036963366 -0.14629738 -0.035114355 -0.037307557
-0.02483466 0.20446646 -0.045296974 0.017335324 -0.03028296 -0.02014774 0.00532467 -0.078682594
0.027382482 0.03269665 -0.017649395 -0.03286751 -0.041898794 -0.043910053 0.05114924 1.0222876
-0.00888395 -0.01192754 -0.041797157 0.015331038 0.10876049 -0.018073747 -0.010941367 -0.09372214
0.03028896 0.013473731 0.0010281862 0.0147026265 0.065888494 0.008837416 0.053022068 -0.11051848
0.0020810573 0.08118185 0.027694194 -0.0014216064 0.005493394 -0.030036315 -0.0029708187 -0.040618468
-0.13161263 0.011349417 -0.052829556 0.010623795 0.013237454 -0.04130787 0.03211999 0.08104674
0.005543751 0.040760268 -0.03301351 0.024486482 0.025326774 -0.2643644 0.0028194785 0.026653778
-0.025164966 -0.018510262 -0.037090223 -0.01372915 -0.03341443 -0.1475295 -0.032364476 -0.03848836
-0.0388606 0.20476478 -0.040288404 0.011748996 -0.03242054 -0.016312068 0.0003102058 -0.08266943
0.025586177 0.029511146 -0.017431993 -0.034180034 -0.041925468 -0.045132652 0.05341264 1.0601474

head.bias f4 [48]
00000000: 1dce 8b3e cbff 883e a0cf 503e 3371 933e
00000010: f4ec 8a3e 2aa4 5e3e c272 623e b8e3 803e
00000020: 6451 813e 8f8e 773e b022 653e 03af 293e
00000030: 694b 183e bac7 383e 9eef 513e d685 463e
00000040: 7ef0 da3d f841 463e ec86 253e 5193 103e
00000050: 0326 2b3e 3115 103e 9060 a53d df13 763d
00000060: 704a e13d 1f79 203d 7c0a 9d3d e39c d43d
00000070: 702b 723d a413 553d 3aab 6f3d 8662 e33b
00000080: f6cc a43b 4658 033d 0d6e 533d 79fe d53c
00000090: df49 593c 64b6 0a3d 04f3 043d 76d0 643c
000000a0: cbc3 5a3b f75d bd3c 3c65 503d be1e 18bd
000000b0: 7f18 b63c 3851 96bd 76d7 193d ebb4 bbbd
0.2730569 0.26757655 0.20391703 0.28797302 0.27133906 0.21742311 0.22114089 0.25173736
0.2525741 0.24175476 0.22376513 0.16570668 0.14872517 0.1804494 0.20501563 0.19386992
0.106904015 0.19361103 0.1616475 0.14118697 0.16713719 0.14070584 0.080750585 0.060077544
0.11000526 0.03917801 0.07668015 0.10381486 0.059123456 0.052020684 0.058512904 0.006939235
0.005029316 0.032066606 0.051618624 0.026122319 0.013262241 0.033865348 0.03245832 0.013965717
0.0033380862 0.023116095 0.050877795 -0.037138693 0.022228478 -0.0733971 0.037558995 -0.09165367
