backend/artifacts/kstep_gru_state.pt (torch, 63285 bytes, 5 tensors)

gru.weight_ih_l0 f4 [192, 12]
000000 a0 25 ca bd b2 86 45 3e 27 11 7b bd 3d 08 32 be
       -0.09870458 0.19289663 -0.061295655 -0.17385955
000010 70 e3 ac 3d b8 8e 33 3e 0f b5 a2 3e 7b 0d 56 3d
       0.08441818 0.17534912 0.31778762 0.05225895
000020 32 2a 20 3d e8 9c c9 bd b2 7a 20 bd 27 76 5e bd
       0.03910274 -0.098443806 -0.03917951 -0.054311898
000030 fa 5f f3 bc ac 3d 9a be fa 07 59 3d 69 b5 0e be
       -0.029708851 -0.30125177 0.052986123 -0.1393639
000040 a2 44 37 3c 4c 4a 6a be 89 b2 dc be 33 80 b3 bd
       0.011185797 -0.22879905 -0.43104962 -0.087646864
000050 10 d3 d0 3d ed a6 0d bc c3 db 09 be a7 df 2d be
       0.10196507 -0.008645755 -0.13462739 -0.16979848
000060 f0 23 fd bd 0f 73 cd bd ca df 0f be 7e 4c fc be
       -0.1236037 -0.10031711 -0.14050213 -0.4927711
000070 ff d4 58 be 2b 58 53 be 32 a3 18 bb 14 bc 05 be
       -0.21175002 -0.20639102 -0.0023290631 -0.13060027
000080 45 6f 92 be ab 72 8e 3e ad ff 58 bd d8 45 ea bd
       -0.28600517 0.2782186 -0.052978206 -0.11439103
000090 d4 c2 ee 3d 31 f9 d3 3d 1d 8d 18 bd a3 b2 70 3c
       0.11658254 0.10350264 -0.03724395 0.014691028
0000a0 cd 9a 4a be 2f bb 3d be e9 64 ac bd f0 94 ca bd
       -0.19785614 -0.18528436 -0.084176846 -0.09891689
0000b0 1d 36 4a 3e 66 e6 dd bc 4d 26 34 be 7d 25 16 be
       0.19747205 -0.027087402 -0.17592736 -0.14662738
0000c0 cf cb df 3c 12 da 3d bc a0 8c 97 3e 71 d5 46 bd
       0.027318863 -0.011587637 0.29599476 -0.048543397
0000d0 f5 35 6d 3e 3f f5 54 3d a3 58 88 bd 8a 74 0f be
       0.23165114 0.051991697 -0.06657531 -0.140093
0000e0 87 35 2d be b9 e9 11 3d e7 d5 20 3e 01 c9 b5 bc
       -0.1691495 0.035623286 0.15706597 -0.022190573
0000f0 70 d8 05 3e 56 41 10 3e 99 ce e4 3d 78 f3 e4 3d
       0.13070846 0.14087424 0.11172218 0.111792505
000100 c9 84 23 3d 50 20 7b bd f6 5c 1c 3b 72 3d 84 3a
       0.039921556 -0.061310112 0.002385912 0.0010089113
000110 c3 b2 5c ba 03 b6 e1 bd 7b 5d 9b 3d 98 d2 8f bd
       -0.00084189716 -0.11021044 0.07586189 -0.070225894
000120 cd f1 e6 bc 33 7b 51 be 47 ff 60 3e 6a 34 26 bd
       -0.028191471 -0.20457153 0.2197238 -0.04057733
000130 c3 ef 04 be 65 9e fe bd 72 d1 c3 bd 0b 10 15 bd
       -0.12982087 -0.12432555 -0.09561433 -0.036392253
000140 d7 22 27 3c 6f cc 80 3e 95 b7 22 3e db bc bf 3d
       0.010201178 0.2515597 0.15890343 0.09362193
000150 0d 5a 8f 3c c1 28 ae bc a4 31 c2 be 4f 5c 5b be
       0.017498994 -0.021259667 -0.37928498 -0.21421932
000160 4e e4 df 3e 72 1e 00 be 31 16 26 be 90 88 4b bf
       0.4372887 -0.12511614 -0.16219403 -0.7950525
000170 83 51 da bc 65 aa 88 be cd 4d 14 be 33 38 6f bd
       -0.026650196 -0.266925 -0.14482804 -0.058403205
000180 1b 44 05 be 0d fa 9d 3c f1 43 8c be e4 20 4f be
       -0.13014261 0.019284273 -0.27395585 -0.2022739
000190 a6 f6 eb bd f6 4a b2 3b f4 2d 28 3c a6 7a 80 b9
       -0.11521654 0.005441065 0.010264862 -0.00024505443
0001a0 ca 79 3c bd 19 69 49 3d 96 b6 f4 3d 51 3d 74 3e
       -0.046014585 0.049172495 0.11948888 0.23851515
0001b0 6b 5d 11 be 9c 95 d6 3e bf 41 98 bd 8e 35 05 be
       -0.14195792 0.41911018 -0.07434415 -0.1300871
0001c0 c5 4c 2d 3e 8b 33 fd 3b 8b f6 a5 3e eb e7 89 be
       0.16923817 0.0077270917 0.3241466 -0.26934752
0001d0 8c 3b c1 bd 74 bc 44 3d eb ce 47 3d b3 9f 06 be
       -0.09435186 0.048031285 0.048781317 -0.13146858
0001e0 9b c4 1b bf 11 32 ec bd 02 6a 0d bd b6 1f c3 be
       -0.6084687 -0.11532987 -0.034524925 -0.3811013
0001f0 80 50 38 be 23 12 4b bd 73 c3 46 3e b5 11 66 bd
       -0.17999458 -0.049577843 0.19410495 -0.05616923
000200 28 82 a2 bd 25 c7 03 3e f1 8b 16 3d 91 66 83 3e
       -0.079349816 0.12868936 0.036754552 0.2566419
000210 4b dc 33 3d e2 81 26 bd db f3 2a 3e ed c3 a9 3c
       0.04391126 -0.04065121 0.16694586 0.020723308
000220 40 30 35 3d a0 51 c9 3b 3b de a8 3d b2 69 18 3e
       0.044235468 0.0061437637 0.08245512 0.1488407
000230 22 19 b4 bb 1d 38 4b 3d a9 fe de 3d f5 9a ad bc
       -0.00549616 0.04961406 0.10888416 -0.021192053
000240 4a 32 de bd 8f e2 af 3d 4c 5a 95 be f0 7d dd bc
       -0.108494356 0.085881345 -0.29170454 -0.02703759
000250 62 d9 b8 be 1e d4 a4 be cb 65 c1 bd 40 56 68 be
       -0.3610335 -0.32193083 -0.094432436 -0.22689152
000260 be d7 2f bd f5 2e d3 3d 4b 49 d6 bd a3 07 e5 bd
       -0.042930357 0.10311691 -0.10463198 -0.11183097
000270 4b a0 27 bd 6c a0 67 bc 8d 89 34 be 41 22 41 be
       -0.04092435 -0.014137369 -0.17630596 -0.18860723
000280 ed ea ad 3e 6b 7a ac bd 5c 08 90 bd f0 8d 0e be
       0.33968297 -0.08421787 -0.070328444 -0.13921332
000290 74 4c ab 3d 15 1c 2b be 85 b4 da 3d 93 49 01 bc
       0.08364192 -0.16709931 0.106789626 -0.007891077
0002a0 1f fe c4 3c 07 e3 f1 3d c3 e1 11 be 8a 50 cd bd
       0.024046956 0.1181088 -0.14246278 -0.10025127
0002b0 05 10 0c be d3 a6 ea 3d 13 1c bf 3c 05 03 d2 3e
       -0.13677986 0.114576004 0.023328817 0.4101793
0002c0 ec b2 f1 3d f7 de 7c be da ff ff bc 3c 7d 4a bd
       0.11801705 -0.2469443 -0.03124993 -0.04943584
0002d0 87 eb 01 be 80 9f 4d 3e c4 10 0d bd f6 d0 04 be
       -0.12687503 0.20080376 -0.034439817 -0.12970337
0002e0 83 6f 3a be 6c af 09 be 94 5d ce 3d 7e ea 06 bd
       -0.18206601 -0.13445824 0.10076442 -0.032938473
0002f0 3e 9f aa bd b8 ab a4 3e a5 ed 65 3e 90 71 14 3e
       -0.08331154 0.3216226 0.22453935 0.14496446
000300 78 2f 26 bf 97 9c 67 3e 65 8b 52 bd fb a5 83 be
       -0.6491618 0.22618328 -0.05140247 -0.2571257
000310 dc 0d 4a 3d a2 d0 4c be be c2 5e 3c 19 d0 6c be
       0.049329624 -0.20001462 0.013596235 -0.23126258
000320 26 3b ba bd 2d 13 92 3d 0f 33 e4 bd 85 21 63 3d
       -0.09093313 0.07132564 -0.11142551 0.05545189
000330 b0 1f f8 bd 30 b7 6d bc 8c ea 08 bf 95 34 b7 ba
       -0.12115419 -0.014509007 -0.5348289 -0.0013977463
000340 de 1c 0e be 38 2b 30 3d 40 f8 80 3d 72 fc b1 3e
       -0.138782 0.043009967 0.0629735 0.34762913
000350 f7 94 b0 bd 84 ae c3 bd cd a3 81 be 72 d8 7c be
       -0.08622163 -0.095547706 -0.25320283 -0.24691942
000360 ff 11 51 3e 22 f8 23 3e 4c c5 34 bd f0 e9 1f be
       0.20417021 0.16012624 -0.04413347 -0.15616584
000370 4f 1c 47 be 59 0c d8 3d 3f 2c 39 3e ad 00 ee 3c
       -0.19444393 0.1054923 0.18083285 0.029053057
000380 08 08 c6 3e 1b 76 3e be de c7 a4 be 8e 0e 52 be
       0.38678002 -0.18599741 -0.32183737 -0.20513365
000390 6b 7a 35 be 4f cf 3d 3e 22 60 0e be 1b b3 96 be
       -0.1772248 0.18536113 -0.1390386 -0.29433522
0003a0 1c 84 86 be e8 19 3d be 6c 7e 84 3b b3 d5 4b 3d
       -0.26272666 -0.18466914 0.004043391 0.049764346
0003b0 2c 9d 8a 3d 16 64 3d be 49 9b 63 bd a6 c1 86 3d
       0.067682594 -0.18495211 -0.055568013 0.06579904
0003c0 23 99 c2 be 5e b9 45 be ee e5 50 3c 6b 0a e0 be
       -0.3800746 -0.19308993 0.012750132 -0.43757948
0003d0 e3 4b 70 be aa cf cb bd e2 6e 00 be d6 0a 94 be
       -0.23466448 -0.09951718 -0.12542298 -0.28914517
0003e0 c8 84 8e bd 11 1e 71 bd d7 e5 16 be d5 d2 02 3d
       -0.0695892 -0.058866564 -0.14736114 0.031939346
0003f0 59 22 56 bd 23 9d 65 3e 5f 93 a1 be db 03 5b be
       -0.05227885 0.22423224 -0.31557748 -0.2138819

gru.weight_hh_l0 f4 [192, 64]
000000 1f 53 96 bd 09 c6 02 3c 15 6c 82 3d 52 66 53 3e
       -0.07340073 0.007981786 0.06368271 0.20644501
000010 57 39 01 be 6a 3f bf be b8 6f 19 3e d1 a2 eb 3d
       -0.1261953 -0.3735307 0.14984024 0.11505664
000020 cc 60 1a bd cd 5f 99 bd cc 31 4a 3e d2 7c 4c 3c
       -0.03768997 -0.07488976 0.19745559 0.012480931
000030 36 fa 52 3c 1e a5 98 3d 04 39 5d bd c1 65 b6 3d
       0.012877038 0.074533686 -0.054009452 0.08906127
000040 a1 f7 56 3e 75 6e 41 bc 08 7c 19 be 01 d0 6c 3d
       0.209929 -0.01180612 -0.1498872 0.057815555
000050 e9 fa 81 3d d5 1b 8a bd 44 99 77 bd 6d 21 a4 3d
       0.063466854 -0.0674359 -0.0604489 0.08014188
000060 db 71 23 3e 6c b8 6b 3d d6 f8 4f bb 1a 38 07 bd
       0.15961401 0.057548925 -0.003173401 -0.033012487
000070 59 43 89 bd 63 c7 e4 3d ba fd c1 3d 97 b8 81 bd
       -0.06702299 0.111708425 0.094722226 -0.06334036
000080 84 0c 65 bd 29 37 b2 3d b7 0b 99 3c 89 5a a9 3d
       -0.05592014 0.08701927 0.018682344 0.08269221
000090 ba 0b 89 3d a7 34 8b bb 2f 55 2d be 06 9b 96 3d
       0.0669169 -0.00424822 -0.16927026 0.07353787
0000a0 ae c1 90 3d 7a 79 89 bd f4 7f 24 bd ab 30 04 3c
       0.070681915 -0.06712623 -0.040161088 0.008068244
0000b0 58 39 7f bd 63 b3 c8 3d fd bb 12 be 7a 41 f9 bc
       -0.062310547 0.0979984 -0.14329524 -0.03042673
0000c0 6e 1c 45 3c a6 97 13 be a4 c2 79 3d 86 50 47 be
       0.012030704 -0.14413318 0.06097664 -0.19464311
0000d0 14 21 29 3e 17 64 ca 3d 81 06 84 3d 8b c8 90 3d
       0.16516525 0.09882372 0.06446553 0.070695005
0000e0 ed 47 8f 3b 14 e7 bc bd 69 4f fb 3c 81 74 af bd
       0.004372588 -0.09223762 0.030677514 -0.08567143
0000f0 b7 e1 bb bd d7 e8 b6 bd 70 ae 8a 3c ea 99 41 be
       -0.09173911 -0.089311294 0.016928881 -0.1890637
000100 de 3c be 3d c3 2a 21 3c 36 21 30 3e 63 ca d1 bc
       0.09288953 0.009836855 0.17200169 -0.0256092
000110 89 cd 1e be 69 1f e1 3d c7 67 89 be 34 ea 01 be
       -0.15508093 0.10992319 -0.26836988 -0.12686998
000120 d1 fb 82 bd b8 56 c9 3d f0 be 1a bd 3c d2 0c 3d
       -0.063956864 0.098309934 -0.03777975 0.034380183
000130 94 16 07 3e d8 56 cc 3d ec b6 62 3e 3f 8c 09 3e
       0.13192207 0.09977502 0.22140092 0.13432406
000140 c3 12 a3 be e0 32 83 bd e0 35 f7 3d 1a 3e ad be
       -0.31850252 -0.06406188 0.12070823 -0.33836442
000150 89 cf 1b be 13 f8 72 be 2d 49 89 bc 91 84 8f bd
       -0.15215887 -0.23727445 -0.016758526 -0.07007707
000160 5d da 17 be 2d 39 0c be ca a9 29 be bb 56 bd 3c
       -0.14829393 -0.13693686 -0.16568676 0.023112645
000170 41 df 38 bd f1 db 85 be 4c ac aa 3d 01 b6 d3 bd
       -0.045134787 -0.26144364 0.08333644 -0.10337449
000180 04 88 01 3d 5d 97 60 3d 80 1d a9 3e 75 61 71 3e
       0.031623855 0.05483185 0.3303032 0.23572333
000190 31 3b 16 bd 24 a4 69 be 76 3e 69 bc f2 9c 5d be
       -0.036677543 -0.22816521 -0.014236083 -0.21641901
0001a0 42 25 ce be ba c2 4f 3e 10 20 13 be 66 6b cb 3d
       -0.402628 0.20289126 -0.143677 0.09932594
0001b0 da 87 58 3e 29 a5 72 3d b8 5a 1a be c5 cd 09 be
       0.21145573 0.05923954 -0.15073669 -0.13457401
0001c0 97 84 3d bd 07 0e 3c be 07 04 63 be ab 7b ef 3d
       -0.046269026 -0.18364726 -0.22169505 0.1169351
0001d0 ed 04 d7 bb fe c4 60 bd 65 c0 b6 bd 91 61 d4 3d
       -0.0065618665 -0.054875366 -0.08923415 0.10370172
0001e0 24 b2 b3 3b 33 16 12 bd 46 77 f7 bd 55 8f 3c bc
       0.0054838825 -0.035665702 -0.120832965 -0.011508782
0001f0 be d4 37 3e 68 ff 49 3c 03 e3 80 bd f6 b4 26 3e
       0.17952248 0.01232896 -0.06293299 0.16279969
000200 29 b2 23 be 47 ba 5e 3d c1 19 fd bd 59 d8 eb bd
       -0.15985931 0.054376867 -0.12358428 -0.115158744
000210 4d 8c 06 3d 2b 42 a5 bd a9 89 5d be 7a 2e 00 be
       0.032848645 -0.08069261 -0.21634544 -0.1251773
000220 2c de 95 3d d0 45 23 be 24 ed 14 be b1 ef 23 3d
       0.073177665 -0.159446 -0.14543587 0.04002351
000230 a8 60 be bc 90 ab b8 bb 96 22 4f 3e 35 cf a6 bc
       -0.023239449 -0.005635686 0.20228037 -0.020362476
000240 05 0c d6 bc ab 26 95 be 1f 78 36 3d de ce 70 be
       -0.026128778 -0.29131064 0.04454815 -0.23516414
000250 27 22 8b bd b1 eb 75 3d 39 cb b0 bd 29 86 90 be
       -0.067936234 0.060039226 -0.08632512 -0.28227356
000260 c3 dd 4a bd 19 7c 00 bd 56 ae 01 bd 25 cc d1 3d
       -0.049527895 -0.03136835 -0.0316604 0.102440156
000270 7a 3f 8a be 97 d3 f1 3d 41 74 5f be 09 b4 0e bd
       -0.27001554 0.11807936 -0.21821691 -0.034839664
000280 80 13 dc bd 2a 6f 3e be 4b 79 f1 bd e8 f5 5b 3d
       -0.10745907 -0.18597093 -0.11790713 0.05370131
000290 c9 b0 b9 3e 40 80 a4 ba 2b d1 10 3d 52 94 d7 bd
       0.3626769 -0.0012550429 0.035355728 -0.10526337
0002a0 ec e5 1d 3e b6 ed b7 3d 0c f7 2a bd 37 31 65 be
       0.1541974 0.08980887 -0.04173951 -0.22382055
0002b0 02 a4 00 be 90 38 fb bc 8d d1 0a bd 47 b8 cf bd
       -0.12562564 -0.03066662 -0.03389125 -0.1014257
0002c0 62 2b 29 be 38 17 68 3e e3 78 63 be 35 f9 39 3e
       -0.16520455 0.22665107 -0.22214083 0.18161471
0002d0 cb 8e 4e be 10 ed 8c 3d a8 df 6a 3d dc d5 02 3e
       -0.20171659 0.068811536 0.0573422 0.12776893
0002e0 be fb d8 bd 85 1e a0 bd 39 28 32 3e bd 2e a2 bd
       -0.10594891 -0.07818321 0.17398156 -0.07919071
0002f0 09 fb 98 be 1e 2c af bd b1 22 52 be d4 4e be 3d
       -0.29879025 -0.085533366 -0.20521046 0.09292379
000300 0d 4c ca 3d 68 dc 94 3d b9 73 53 bd a9 7b 25 be
       0.09877787 0.07268602 -0.051624034 -0.16160454
000310 57 29 4f be 85 b7 60 3c c4 65 36 bb f3 1b 93 be
       -0.20230614 0.0137156295 -0.0027831653 -0.2873226
000320 74 d6 cd bd 40 c7 f3 3c 4e f6 bc 3d 87 52 98 bd
       -0.10050669 0.029758096 0.092266664 -0.07437616
000330 7d 12 25 3d 37 69 01 3e 62 1f 5a be cd fa 30 3d
       0.040300835 0.12637793 -0.21301034 0.043207932
000340 ea d0 44 be 27 56 cb bd 3d 93 89 3e 33 5d 03 3e
       -0.1922032 -0.09928542 0.26870146 0.12828521
000350 69 62 f1 bd 26 cc bd 3d 6d 2e aa 3d cd 72 06 bc
       -0.117863484 0.09267454 0.08309636 -0.008206082
000360 8c c4 b3 3c e8 10 04 bd 56 b0 2d 3e 8f 53 bd bd
       0.021944307 -0.032242686 0.16961798 -0.09244453
000370 14 9c b9 bc 36 87 98 bd d8 e4 c3 3d 1b fa cd 3b
       -0.022657432 -0.074476644 0.09565133 0.0062859184
000380 fb 94 68 be ab 20 fb bd 27 af 0c be 55 b3 13 3d
       -0.22713082 -0.1226209 -0.1373869 0.036059696
000390 c4 4f d4 3d 7e 9b 15 3b 25 3e 7c bd 3d c1 ff 3c
       0.103667766 0.0022828276 -0.061582703 0.031220073
0003a0 e7 a1 09 bd 9a 4e 8e bc d3 bc b9 3d aa 01 fe 3d
       -0.033601668 -0.017371465 0.090692185 0.12402661
0003b0 1e bb 0a bc db cf e7 bd e7 3a af bd de ed bb 3d
       -0.008467464 -0.11318942 -0.085561566 0.09176229
0003c0 47 10 3d 3d 3b d8 96 bd fb 32 05 be 34 d8 91 be
       0.0461581 -0.073654614 -0.13007729 -0.28485262
0003d0 9c 14 89 3d 74 01 53 3d 5b 1b c5 3c 8a ea 54 bc
       0.06693384 0.051515058 0.024060896 -0.012995372
0003e0 16 07 1c 3e ef 27 b8 bd 5e 2b 1c 3e 42 d8 2c 3e
       0.15237078 -0.08991992 0.15250918 0.16879371
0003f0 2e b2 17 be 62 de 9c 3d 8e 0d 2d 3d cd 4f f1 bd
       -0.14814064 0.07659604 0.042249255 -0.11782799

gru.bias_ih_l0 f4 [192]
000000 dd c9 9c 3c 24 56 80 bd 62 c7 dd bd ef 77 36 3e
       0.019139225 -0.0626643 -0.10829045 0.17819189
000010 bb e5 f5 3c dc 9b a2 3d e3 65 29 3d bd 55 3e be
       0.03001677 0.07939884 0.041356932 -0.18587394
000020 d8 7e ce bb f5 5b 8a bd 98 8b 60 3d 41 7e b5 3c
       -0.006301742 -0.06755821 0.054820627 0.02215493
000030 4f c9 7d 3d 20 22 e7 bd 7e d8 17 3d 43 ed 92 3d
       0.06195956 -0.11285806 0.037071697 0.0717416
000040 86 98 4f 3d 20 52 dd bc f5 7e cb 3d 9e 6a 2b 3d
       0.050682567 -0.0270167 0.099363245 0.041849725
000050 ce 8d 5c be b3 93 18 bd 23 5d d2 3d 57 9b 83 be
       -0.21538469 -0.037250232 0.10271671 -0.25704452
000060 cf c4 09 3e 91 b8 ad bd 18 cf 57 bc 04 57 41 be
       0.13453983 -0.08482469 -0.013171934 -0.1888085
000070 fa c8 14 3e 85 42 20 bd 6c 13 27 3d dd f8 4c 3e
       0.14529791 -0.039125938 0.040790007 0.20016809
000080 ab a3 dd bd 63 3c 05 be b2 e5 32 3d 9b 91 c7 3d
       -0.10822233 -0.13011317 0.043676086 0.09744569
000090 43 12 86 be 10 31 92 bc bc b1 b6 bd 44 bf 8f bd
       -0.26185808 -0.01784566 -0.08920619 -0.07018903
0000a0 82 e9 26 bc 95 c4 d2 bd e2 0f e7 bc d1 a9 94 3d
       -0.010187509 -0.10291401 -0.028205816 0.072589524
0000b0 57 9c bd 3d fb 1f cd bc 4a ac 5e be df e2 14 3e
       0.09258335 -0.025039664 -0.2174541 0.1453967
0000c0 9f 61 7b 3d 3a 9f fb 3d 17 05 b6 3d 72 61 52 bd
       0.061372396 0.122862294 0.088876896 -0.051362462
0000d0 4d e5 33 bd 4d b6 41 be 78 17 83 3d 05 2e d6 3d
       -0.04391985 -0.18917198 0.06400961 0.10457996
0000e0 98 cf 7c bd fd c2 f9 bc 57 03 16 be 7e 72 91 3c
       -0.061721414 -0.030488485 -0.14649712 0.01775479
0000f0 86 4d aa bd ac 13 12 3d c0 25 7d bc cd 8a b3 3d
       -0.08315568 0.03566329 -0.015450895 0.087667085
000100 f1 69 83 bd 48 ca 14 bc ed 13 03 be 4d db 1d 3c
       -0.06416691 -0.009081431 -0.1280057 0.009634805
000110 c7 ae ff bc 7a 7d 75 be cb c8 83 3e 33 4c d0 3d
       -0.03121127 -0.23973647 0.2573913 0.10170784
000120 c9 a8 b9 3c 90 18 55 be c5 00 19 be ea a9 60 be
       0.02266349 -0.20810151 -0.149417 -0.21939817
000130 25 07 04 3e c2 14 b6 3e 74 99 07 3c 01 26 0c 3e
       0.1289335 0.35562712 0.008276332 0.13686372
000140 e3 e6 8d 3e 5a 01 7f be 19 82 bc be 47 7a 4a 3e
       0.27715215 -0.2490286 -0.36818007 0.19773208
000150 d0 42 82 be 62 e3 3e bc c7 de 92 bd 70 bc 46 3e
       -0.254416 -0.011650892 -0.07171398 0.1940782
000160 12 1d c4 3e 9e 4d d1 be 4d de de 3d e6 c1 35 bd
       0.3830343 -0.4087953 0.10882244 -0.04437437
000170 22 2b d1 3d 5e 9f b8 be a8 41 94 3d 3f 7d 35 be
       0.10213305 -0.36059088 0.072390854 -0.17723559
000180 04 41 64 3d 29 c9 7a 3d 88 4c 36 3e 31 06 8e be
       0.055726066 0.061226998 0.17802632 -0.277391
000190 d6 c7 e4 bd 54 58 d9 be 5d 56 b5 3d 97 91 cf 3d
       -0.11170928 -0.42450202 0.08854363 0.10135191
0001a0 9c 89 13 bb be 59 20 be 2f 7c 89 3d bb 93 79 bd
       -0.0022512442 -0.15659234 0.06713139 -0.060931902
0001b0 14 ee b3 3d 6e 0f ba 3e de b0 3f be 13 91 c0 3c
       0.08785644 0.36339897 -0.18719813 0.023506677
0001c0 32 28 3a be f7 3e 69 be a4 16 01 be 52 33 19 3e
       -0.18179396 -0.22777925 -0.12606293 0.14960983
0001d0 66 ae aa be 80 90 87 bd 9e d1 7c 3d 66 89 af bd
       -0.3333618 -0.06619358 0.061723344 -0.085711285
0001e0 ba ae 71 3e fb cf 41 3d f5 fa d8 3b 25 41 ba 3d
       0.23601809 0.047317486 0.0066217133 0.090944566
0001f0 33 9d ba be d2 e7 e9 bb 48 66 78 bd 8a 2a fe 3d
       -0.36448058 -0.007138231 -0.060644418 0.124104574
000200 c3 9d dd 3c a0 ae 00 3e 77 03 23 bd ff 27 4f 3e
       0.027052766 0.12566614 -0.039798226 0.20230101
000210 cb 5b 00 3e b7 1c 34 3e 01 69 1d 3c 73 83 9a bd
       0.12535016 0.17589079 0.009607554 -0.07544603
000220 cf 03 91 bd 7e 08 71 3d bb bd 61 3d d4 43 53 bd
       -0.070808046 0.05884599 0.05511258 -0.051578358
000230 e3 46 cd 3d b7 69 01 be cf 20 16 3d 66 9c 0a be
       0.10023286 -0.12637983 0.036652382 -0.13536224
000240 f9 92 e3 3b e8 4a 19 3d 10 09 df bd 4b 73 06 3e
       0.0069450107 0.03742495 -0.108904004 0.13129918
000250 21 bc 96 3d ea 31 ca 3d a8 a0 cd 3d 1c 1e 04 3d
       0.073601015 0.098728016 0.100404084 0.032255277
000260 7d 03 22 bd ed 71 72 bd d3 76 5d 3d ef ae 12 be
       -0.039554108 -0.05919068 0.054068398 -0.14324544
000270 8a 29 ec 3d 18 b0 75 3d 14 76 29 3e 98 52 30 bc
       0.115313604 0.05998239 0.1654895 -0.010761879
000280 50 53 e2 3d e7 24 08 be 30 c2 2d bd a6 8a 06 3d
       0.11051047 -0.13295327 -0.04242152 0.03284707
000290 98 10 21 be 7c bf c7 bd 97 db ae 3d f2 94 df 3d
       -0.15728986 -0.097533196 0.08537977 0.10917081
0002a0 43 0e 71 bc c3 90 3e 3c 59 d9 39 bd f3 02 70 bb
       -0.014712873 0.011631194 -0.045373295 -0.0036622852
0002b0 ae 0e e3 bd ad 4b 57 bd a5 99 97 bd d3 a5 01 3e
       -0.11086784 -0.052562404 -0.07402352 0.12660913
0002c0 7c 94 32 bb b2 e7 ff bd a5 5e b3 3d ab 0f 9c bd
       -0.0027249148 -0.12495364 0.087582864 -0.07620176
0002d0 b8 0f 76 3d 54 64 48 3c 03 28 6a 3d de 5f 9d 3c
       0.060073584 0.012230951 0.057167064 0.019210752
0002e0 70 34 59 3c fc d4 47 bd 72 75 40 bd 50 5d e9 bc
       0.013257131 -0.048787102 -0.046987005 -0.028486878
0002f0 68 56 24 ba 8b 58 dd 3d 3f 39 ca 3c 3f b0 6c bc
       -0.0006268979 0.10807904 0.0246855 -0.014446317

gru.bias_hh_l0 f4 [192]
000000 84 f4 8a bd 71 25 59 3d bc ee 6f be 58 3b 5f 3d
       -0.06784919 0.053014223 -0.23430914 0.054499954
000010 53 ad 81 bd f0 a9 d0 bd 03 61 d7 3c bd b9 53 be
       -0.06331887 -0.10188663 0.026291376 -0.20676322
000020 b9 a9 d7 bc 3b c8 dd 3d 4b 53 a0 bd 5c 3d bf 3d
       -0.026326047 0.108292066 -0.07828387 0.09337875
000030 32 b0 de 3d c6 f8 04 be 02 5e 51 3d 5c 62 e6 3d
       0.1087345 -0.12985525 0.051115043 0.11249229
000040 89 40 c8 bb 11 9b b7 bc fe b8 32 3e 7d 71 2a bd
       -0.006111209 -0.022412809 0.17453381 -0.041612137
000050 c2 e4 59 be 08 00 80 bd e0 74 1d 3e ef b3 8c be
       -0.2127867 -0.06250006 0.15376616 -0.27481028
000060 a8 75 af bc 41 1d 0c 3d bc 35 c6 bc 15 11 a8 bd
       -0.021418408 0.034207586 -0.024195544 -0.08206383
000070 c4 7f 9c bd c8 87 97 3d 20 37 b0 3d 53 79 22 3e
       -0.07641557 0.07398945 0.08604264 0.15866594
000080 0b 33 45 3d b4 0b 4a bd fa f1 fe 3c f0 d9 79 bd
       0.04814438 -0.049327567 0.031121243 -0.060998857
000090 88 6e c4 bd 33 d4 73 bd 3f 41 81 3d 78 b9 57 3c
       -0.09591395 -0.05952854 0.06311273 0.013166778
0000a0 47 ad b7 3c 06 38 b9 bd 2d 7e 26 3d c0 6b b6 3c
       0.022421492 -0.09043889 0.040647674 0.022268176
0000b0 cf af 0f 3d 3f d6 1e 3d aa ec 1e be 9b 52 73 bd
       0.035079774 0.03877854 -0.15519968 -0.05940495
0000c0 c3 68 83 bd b1 a0 fd bc 97 61 d7 bc 2f f5 19 be
       -0.06416466 -0.030960413 -0.026291652 -0.15034936
0000d0 9e 20 13 3d 80 c2 3f be 80 13 aa bd f4 85 89 bd
       0.035919778 -0.1872654 -0.083045006 -0.06715003
0000e0 6f b2 a8 3c c7 c7 64 3d 43 41 fc bd ef 4d cf 3c
       0.020592896 0.055854585 -0.12317135 0.025305716
0000f0 ce a5 08 be ef b2 d7 bd 02 93 9b bd 77 e0 c6 bd
       -0.133445 -0.10532176 -0.07596399 -0.09710782
000100 58 e8 4c bd 66 f6 3a 3d ca 7d e4 bd c4 6e 0d 3c
       -0.050026268 0.04564514 -0.11156805 0.008632366
000110 8c 2e 2a bd b4 55 3d be a8 88 76 3e eb d3 9e bd
       -0.041548297 -0.18489724 0.24075568 -0.07755264
000120 7a f6 d2 3d 3d 43 ed bd 4e bd 2f bc 97 cc e6 bb
       0.10300918 -0.1158509 -0.010726286 -0.007043432
000130 7f b3 30 3e 8b e0 4d 3e bf bb 05 3e 46 6c 78 bd
       0.17255972 0.20105188 0.130599 -0.060650133
000140 1c e0 25 3e 03 2e 26 be 07 7e d2 be 21 7d 44 3e
       0.16198772 -0.1622849 -0.41111776 0.19188358
000150 c2 b8 e0 bd ff 0c 80 bd cc 17 84 bd e2 cd 3c 3d
       -0.1097274 -0.06252479 -0.064498514 0.046094783
000160 e6 92 bd 3e 15 e5 a9 be 4e be 1c 3e 92 c0 ed 3c
       0.37026137 -0.33182588 0.1530697 0.029022489
000170 96 7f a3 3d 77 67 24 be 74 47 e8 3b cf 0b 18 be
       0.079833195 -0.16055094 0.007088596 -0.14848255
000180 04 f3 c4 bd c7 ea 81 3d 33 8e 82 3e 06 2e aa be
       -0.09616664 0.06343608 0.25499114 -0.33238238
000190 1e e5 38 bd a2 15 5d be c4 11 80 3e 97 6a 03 3d
       -0.04514038 -0.21590284 0.25013554 0.032084074
0001a0 4b 2b 39 3e 5c 17 96 bd 08 8e ca 3c bf 8a 6c be
       0.18082921 -0.07328674 0.024725929 -0.23099802
0001b0 55 05 02 3d c5 8c c8 3e 23 62 38 be 54 54 9f 3c
       0.031743366 0.391699 -0.18006186 0.01944939
0001c0 a0 74 12 be 98 c9 68 be 2c 92 b4 3c 8b f7 96 3d
       -0.14302301 -0.22733152 0.022042356 0.07371434
0001d0 11 b3 86 be 5e 91 ab bd 03 ed cc 3b 76 0c 83 be
       -0.26308492 -0.08377336 0.00625384 -0.25595444
0001e0 07 2a a1 3d 82 d5 81 3e dc 51 cf 3d 79 10 38 3d
       0.07869344 0.25358206 0.10123035 0.044937585
0001f0 3a b2 a3 be d8 51 04 3e 26 0f f9 bd c4 5e df bc
       -0.31971914 0.12921846 -0.121610925 -0.027266867
000200 ce e8 ca 3d d2 cf 13 bd 87 77 14 3e ce de 04 bd
       0.09907685 -0.036086865 0.14498721 -0.032439046
000210 89 ae d5 3d 43 a4 b0 3c d3 5a 11 bc 95 46 9e 3d
       0.104336806 0.021562701 -0.008871752 0.07728306
000220 a2 30 05 3e 2a 39 b4 bc e1 c1 80 bd 6c b4 92 3d
       0.13006833 -0.021999914 -0.062869795 0.07163319
000230 d8 69 41 3d 44 21 01 be cc 75 d6 bd 7a 73 08 bd
       0.04722008 -0.12610346 -0.10471687 -0.033313252
000240 a6 5f 30 3e 48 30 3d bc 93 37 5b be be ef 91 bc
       0.17223987 -0.011547156 -0.21407919 -0.017814513
000250 c5 c3 c9 bd f9 36 04 be e5 c1 10 be d8 6f a0 3d
       -0.09851793 -0.12911595 -0.14136465 0.078338325
000260 ce 87 80 3c 8b 9d e3 3d 06 33 6f bd e3 bb 07 bd
       0.015689757 0.11114033 -0.05839827 -0.033138167
000270 b6 51 ca 3c e6 dc 96 bd af 77 fc 3d 02 7b 28 3d
       0.024697166 -0.07366352 0.12327515 0.041132934
000280 e4 24 31 3e f6 3f eb bd ce e4 e7 bc 2c 17 22 3c
       0.17299229 -0.11486809 -0.028307345 0.00989322
000290 c0 80 92 bd 27 cc 39 bd 0e d0 d9 3d 35 68 a1 bd
       -0.07153463 -0.04536071 0.106353864 -0.07881204
0002a0 28 bc c1 bd e2 48 81 bd ab d1 f1 3d 54 ea 25 be
       -0.09459716 -0.063127294 0.11807569 -0.1620267
0002b0 9e 79 f7 3b e7 a6 8b bd 53 33 12 3e e9 4a 0c 3e
       0.0075523397 -0.068189435 0.14277391 0.13700451
0002c0 18 71 f5 bb 99 95 75 bd 1a 89 78 3d 5d 62 fe 3c
       -0.0074902885 -0.05995712 0.060677625 0.031052763
0002d0 8c 7e ef bc 64 3e 96 3d ab ef 6e 3d a1 74 94 bc
       -0.029235147 0.07336119 0.058334034 -0.01812202
0002e0 d9 77 90 bd aa 6f 3c 3c 23 0f 9d bd 52 bf b2 3d
       -0.07054109 0.011501232 -0.07668903 0.08727898
0002f0 07 ff 0d 3e d0 a0 ff bd ef bd 43 bc 7c bd 3b 3d
       0.13866816 -0.124818444 -0.011947139 0.045835003

head.weight f4 [1, 64]
000000 28 ec 07 3e 1f 07 cb bd ac 28 29 3e c9 f2 37 be
       0.1327368 -0.099134676 0.16519421 -0.17963709
000010 ff 13 80 be 18 d8 d1 3d 10 43 1c bd f7 b1 94 3e
       -0.25015256 0.10246295 -0.038149893 0.29042026
000020 30 c7 4f 3e c5 1d 3b be ac 9a 73 3e 91 2e 93 bc
       0.20290828 -0.18273075 0.23789471 -0.01796654
000030 9b c9 88 be cd 5d 9f 3d 50 ec 86 3e bc 57 65 3e
       -0.26716313 0.07781563 0.26352167 0.2239675
000040 93 c7 38 3e 44 07 35 be 12 10 48 be 80 a2 11 be
       0.18044882 -0.17678553 -0.1953738 -0.14222145
000050 e1 9b e9 bd 25 82 fb bd 48 6b b5 3c 73 b2 8b 3d
       -0.11406685 -0.122806825 0.022145882 0.06821146
000060 c9 d1 8a 3e 9c 0f 14 be 10 be 3d be 34 57 d9 3d
       0.27113178 -0.1445908 -0.18529534 0.10612336
000070 8b 2c 13 be d5 77 7d be 17 13 b8 bb 3d 73 9d 3e
       -0.1437246 -0.24752744 -0.00561751 0.30751982
000080 98 02 19 3e 74 36 91 3e 2e 2d b5 be e0 43 46 3e
       0.14942396 0.28361857 -0.35386032 0.1936183
000090 b5 ed 3d bd 00 0d 20 be 87 4b 17 be 0c 9f 2a bd
       -0.046369273 -0.15629959 -0.14774905 -0.041655585
0000a0 68 a3 35 3d 75 ea 60 3e fa 08 2f be c5 94 26 be
       0.04434529 0.21964438 -0.17093268 -0.16267689
0000b0 84 65 de 3d ad 0d 86 3e 5e 43 7d bd 69 67 54 be
       0.10859206 0.2618231 -0.061831824 -0.20742573
0000c0 1e 83 8d be 4c c6 eb bd 4a 8f da bd ec 06 36 be
       -0.27639097 -0.115124315 -0.106718615 -0.17776078
0000d0 d4 cc 09 3e 08 dc 4e 3e 7c 0c 29 be 7a b8 0f 3e
       0.13457042 0.20201123 -0.16508669 0.14035216
0000e0 ae 0f 11 3e 11 20 37 3e e1 ef ba 3d bd 96 10 be
       0.14166138 0.17883326 0.091277845 -0.14120002
0000f0 99 57 2d be 33 31 35 3e 96 d2 1f be ad 5b 4e 3e
       -0.16927947 0.1769455 -0.15607676 0.20152159
